module attributes {llvm.data_layout = "e-m:e-p270:32:32-p271:32:32-p272:64:64-i64:64-i128:128-f80:128-n8:16:32:64-S128", llvm.target_triple = "x86_64-unknown-linux-gnu", "onnx-mlir.symbol-postfix" = "model"} {
  func.func @main_graph(%arg0: tensor<?x25xf32> {onnx.dim_params = "0:batch_size", onnx.name = "input"}) -> (tensor<?x10xf32> {onnx.dim_params = "0:batch_size", onnx.name = "output"}) {
    %0 = onnx.Constant dense<"…"> : tensor<25x20xf32>
    %1 = onnx.Constant dense<"…"> : tensor<20x15xf32>
    %2 = onnx.Constant dense<"…"> : tensor<15x10xf32>
    %3 = "onnx.Flatten"(%arg0) {axis = 1 : si64, onnx_node_name = "/flatten/Flatten"} : (tensor<?x25xf32>) -> tensor<?x25xf32>
    %4 = "onnx.MatMul"(%3, %0) {onnx_node_name = "/fc1/MatMul"} : (tensor<?x25xf32>, tensor<25x20xf32>) -> tensor<?x20xf32>
    %5 = "onnx.Relu"(%4) {onnx_node_name = "/relu/Relu"} : (tensor<?x20xf32>) -> tensor<?x20xf32>
    %6 = "onnx.MatMul"(%5, %1) {onnx_node_name = "/fc2/MatMul"} : (tensor<?x20xf32>, tensor<20x15xf32>) -> tensor<?x15xf32>
    %7 = "onnx.Relu"(%6) {onnx_node_name = "/relu_1/Relu"} : (tensor<?x15xf32>) -> tensor<?x15xf32>
    %8 = "onnx.MatMul"(%7, %2) {onnx_node_name = "/fc3/MatMul"} : (tensor<?x15xf32>, tensor<15x10xf32>) -> tensor<?x10xf32>
    return %8 : tensor<?x10xf32>
  }
  "onnx.EntryPoint"() {func = @main_graph} : () -> ()
}
